model.tflite (tflite, 501300 bytes, 15 tensors)

arith.constant19 f4 [19, 19]
000000 c0 e5 e9 3c db 69 3b be 14 2e 39 be b8 47 60 be
       0.028551936 -0.183021 -0.18083984 -0.21902359
000010 be 6e bf be 0c a8 db 3d d7 c0 bd be 00 64 67 bd
       -0.37389177 0.10725412 -0.37061188 -0.05649185
000020 82 d9 3c 3e 38 24 a3 be d1 49 b2 3e fe 31 62 3e
       0.18442348 -0.3186357 0.34821942 0.22089383
000030 13 8a 63 be df 82 92 3e 0f 89 c1 3e b0 25 bb 3c
       -0.2222064 0.28615472 0.3779988 0.02284512
000040 04 16 3a be 8a f9 00 be b0 02 4a 3d 22 57 55 3e
       -0.18172461 -0.12595192 0.04931897 0.2083402
000050 30 e0 8e bc 2f 7d 9f 3e b8 2c 2a 3d 31 a4 ca 3e
       -0.017440885 0.31150195 0.041546553 0.39578393
000060 e6 38 2c 3e 28 95 1c 3d 8f 85 a3 be 67 50 c5 3e
       0.1681858 0.038228184 -0.31937835 0.38537905
000070 6a 2a bd be 42 ac 49 3e 0b f8 b1 3e 89 e4 ab 3e
       -0.36946422 0.19694617 0.34759554 0.33572796
000080 95 a7 c6 3e 80 b1 8e 3c c2 b0 3e be 40 25 18 3c
       0.3879973 0.017418623 -0.18622115 0.009286225
000090 ea bb 94 be 26 c4 13 be 44 35 b2 bd 8a 3c 4c 3e
       -0.29049617 -0.14430293 -0.08701566 0.19944969
0000a0 40 d8 ec bb 6f 29 a4 be c6 44 46 3e 33 97 a7 be
       -0.0072279274 -0.3206286 0.19362172 -0.32732543
0000b0 f2 98 05 be 11 96 aa 3e be c0 04 3e bd 7b a2 3e
       -0.13046625 0.33317617 0.1296415 0.3173503
0000c0 11 e7 43 be 58 89 04 bd 4b bd 75 be ee 25 0c be
       -0.19131114 -0.032357544 -0.23997991 -0.13686344
0000d0 fe 68 b6 be a4 33 d8 3d 12 c5 2b 3e 08 b3 ab 3d
       -0.35626978 0.10556725 0.16774395 0.08383757
0000e0 a0 14 ec 3c c1 9a 8b be 22 c6 88 be 46 78 0e 3e
       0.028818429 -0.27266505 -0.26713663 0.13913068
0000f0 21 63 c5 be b0 ea 87 be 9e 96 1e 3e 45 70 87 3e
       -0.38552192 -0.2654624 0.15487143 0.26452842
000100 68 e5 a4 be 3e c1 74 be 0a 01 47 3e c4 af a9 bd
       -0.32206273 -0.23901841 0.1943399 -0.08285478
000110 64 4e 88 3d 6b db 85 be fe 75 11 3e 8d 5f ac 3e
       0.06655577 -0.26143965 0.14205167 0.3366665
000120 a8 a6 5c bd 48 36 cf 3d 35 4d bc 3e 2b f6 c1 be
       -0.053869873 0.10117775 0.36777654 -0.37883124
000130 00 e9 11 bc a9 da c2 3e f0 19 34 bd a0 53 62 bd
       -0.008905649 0.3805745 -0.04397005 -0.055255532
000140 40 2d 0f 3c ae cb 6f 3e 8b de 98 3e a0 35 2f bc
       0.008738816 0.23417541 0.29857287 -0.010693938
000150 75 27 1a be fc 20 f3 bd 00 a9 b1 bb d8 0d 15 bd
       -0.15054114 -0.11871526 -0.0054217577 -0.036390156
000160 92 19 4f 3e f0 f1 f3 bd 0a ac 2b 3e ee 61 53 3e
       0.20224598 -0.1191138 0.16764846 0.20642826
000170 c3 60 72 be 6e c5 63 be 9e 59 0d 3e 96 6d 02 3e
       -0.23669724 -0.22243282 0.13803717 0.12737116
000180 ae 26 0c 3e 1c 44 f6 3d b2 a2 88 be cd 3e bd be
       0.1368663 0.120247096 -0.26686627 -0.36961976
000190 18 f3 2e 3d da c9 1b 3e 11 68 ca be 20 49 34 bd
       0.0427123 0.15213719 -0.3953252 -0.04401505
0001a0 6a 49 16 3e 9f f3 84 3e c0 2e ee bd 84 1a 99 bd
       0.14676443 0.25967118 -0.116300106 -0.074757606
0001b0 2a 80 7a 3e 76 5a 4e 3e 66 f8 2b 3e c3 ce b7 3e
       0.24462953 0.20151696 0.16793975 0.35899934
0001c0 96 3a 5a 3e 9e 68 09 3e 0a b4 72 3e d8 1f a8 be
       0.21311411 0.13418815 0.23701492 -0.32836795
0001d0 32 f3 9f be 00 dd 55 3d fe 35 72 3e 72 01 9a be
       -0.3124023 0.052212715 0.23653409 -0.30079228
0001e0 62 41 09 3e 62 85 06 3e 86 f1 26 3e 80 13 b4 be
       0.13403848 0.13136819 0.16303071 -0.35171127
0001f0 22 de 24 3e dc 9c f0 bd 50 b9 75 bd e8 7b 1a bd
       0.16100362 -0.117486686 -0.05999118 -0.037715822
000200 71 bc b1 be b6 8a 75 3e 84 78 f0 3d 5f 43 84 3e
       -0.34714082 0.23978695 0.117417365 0.2583265
000210 c0 84 3e be 1e 5b 5d 3e 10 7a d1 3c bb 16 95 3e
       -0.18605328 0.2161679 0.0255709 0.29118904
000220 f8 29 f7 bd b4 83 8e be f7 a0 b0 3e cd 63 35 be
       -0.12068552 -0.27834857 0.34497806 -0.17713852
000230 6c 31 c5 be 72 77 31 3e 07 5c 35 be 94 35 e2 3d
       -0.38514268 0.17330721 -0.17710887 0.110453755
000240 7c c8 82 be bc 26 34 be f1 ae aa 3e 41 82 bd 3e
       -0.25543582 -0.17592901 0.33336595 0.37013438
000250 f4 c6 a6 bd 08 94 3c bd 3c 1a bf bd f2 d6 78 be
       -0.08143416 -0.04603961 -0.09331176 -0.24300745
000260 12 c9 b0 be 90 71 bf be c3 a6 a5 3e 67 6a ae be
       -0.34528404 -0.3739133 0.32353792 -0.34065554
000270 c4 05 ee 3d 90 b1 1c bd 55 ed 95 3e e3 9f b6 3e
       0.116221935 -0.038255274 0.29282632 0.3566886
000280 b8 b0 81 be 29 74 a4 be f2 90 55 3e 08 6a 14 3d
       -0.25330138 -0.32119873 0.20856073 0.03623393
000290 b8 ec 99 bd b0 b8 ed bd fc 3f ee 3d 12 d9 51 3e
       -0.07515854 -0.11607492 0.11633298 0.20492962
0002a0 90 a6 55 bd eb 44 82 3e e2 b2 18 3e f0 6f a5 3d
       -0.0521608 0.25443205 0.14911988 0.08077991
0002b0 e4 69 8d be ed e6 86 3e f0 9f 3a 3d 80 d5 e9 3b
       -0.2761985 0.26348057 0.045562685 0.007136047
0002c0 b6 68 3d be 0b b1 c9 3e f4 aa d6 bd e8 a8 b4 be
       -0.18496975 0.39392886 -0.104818255 -0.35285115
0002d0 02 6c b9 be 08 22 25 be 26 3d 26 3e 40 7a ed bc
       -0.36215216 -0.16126263 0.16234264 -0.028988957
0002e0 7d e9 c5 3e ce c5 17 be 7e 51 3f 3e c0 5f 55 3d
       0.386547 -0.1482155 0.1868343 0.052093267
0002f0 5f 4d c5 3e bb e4 9f be fe 5d b3 be 0f 88 c0 3e
       0.38535592 -0.31229195 -0.35032648 0.37603804
000300 58 5c 13 bd cf a2 b4 3e 88 9b 01 3d 56 c0 01 3e
       -0.035976738 0.35280463 0.031642467 0.12671027
000310 af d1 5a be e0 6a 60 bd 9b e5 24 be a2 ea a5 be
       -0.2136905 -0.054789424 -0.16103213 -0.32405573
000320 6b 7e 24 be 62 37 60 3e 35 78 8d 3e 40 d4 0b be
       -0.1606385 0.21896127 0.27630773 -0.13655186
000330 48 eb 11 bd 87 fa b6 3e a9 58 a3 3e 40 3a 10 bc
       -0.035624772 0.35738012 0.3190358 -0.00880295
000340 cf 5c c2 be d8 a5 0c 3d b2 9d 98 be 04 8d 92 be
       -0.37961432 0.03433785 -0.29807812 -0.2862321
000350 fd 27 8f be f6 f1 62 be 4b 32 c5 3e c0 ca 0d 3c
       -0.27960196 -0.22162613 0.38514933 0.008654296
000360 c7 00 af 3e ac 63 9f bd 40 b4 f0 bb 46 34 1e 3e
       0.3418028 -0.07782683 -0.007345706 0.15449628
000370 75 33 75 be 38 cb 06 3d a1 2d 8a 3e 5e 3d 30 3e
       -0.2394541 0.03290865 0.26987937 0.1721091
000380 a0 26 53 bd e5 cc b3 3e 1a 59 1b 3e 2d 59 cb be
       -0.051550508 0.3511726 0.15170708 -0.39716473
000390 98 7e 76 bd f8 82 a0 bd 10 97 ef 3c b6 71 77 3e
       -0.060179323 -0.0783748 0.029246837 0.24164471
0003a0 e4 88 fc bd 00 5a ac 3c 60 4c 61 3c 60 4d b7 3c
       -0.12330797 0.02103901 0.013751119 0.022375762
0003b0 13 22 76 be 8a 0c 76 3e fc 2f 82 be d6 a8 0e be
       -0.24036436 0.24028221 -0.25427234 -0.13931593
0003c0 e0 41 88 bd bc cd 0e be ce 27 32 3e bf de c6 3e
       -0.0665319 -0.13945669 0.17397997 0.38841817
0003d0 20 d5 7e bd 32 88 3c 3e fc dd b7 3d 44 f2 ab be
       -0.06221497 0.1841133 0.08977887 -0.33583272
0003e0 77 9a 8f 3e 18 d9 2f bd e3 d1 b2 3e 1b 5a 8f be
       0.28047535 -0.042931646 0.34925756 -0.27998433
0003f0 c5 3c 92 3e fb 30 b5 3e 74 33 98 bd 1e 84 15 be
       0.28561988 0.35388932 -0.07431689 -0.1460118

arith.constant20 f4 [19, 128]
000000 74 b6 86 3d 66 c3 3e 3e b1 62 b6 bd 86 70 44 be
       0.06577769 0.18629226 -0.08905543 -0.1918355
000010 14 1e e7 3d 38 e8 24 be c0 54 34 3b 44 a8 08 3d
       0.11285034 -0.1610421 0.0027516335 0.033363596
000020 d2 57 d4 bd 00 b8 33 ba 40 e4 63 3d 98 cb 05 3d
       -0.10368313 -0.0006855726 0.055637598 0.032664865
000030 4c fe 8b bd 20 8b 03 be fc f3 ca bd e2 2f cd bd
       -0.06835613 -0.1284604 -0.099098176 -0.100188985
000040 34 35 cf 3d e4 be 29 3d b0 37 71 3d 5c c7 0d be
       0.101175696 0.041441813 0.058891 -0.13845581
000050 85 ba 2b be 5c fa 0d be c0 dc 02 3b 96 9d 2d be
       -0.1677037 -0.13865036 0.0019968003 -0.16954646
000060 9b 77 15 be 14 aa 89 3d cc 5e 21 be e8 81 1f 3d
       -0.14596407 0.06721893 -0.15758818 0.038942248
000070 74 b2 99 bd 18 06 e3 3d 00 c0 be bb b8 d0 e8 bc
       -0.0750474 0.11085147 -0.005821228 -0.028419837
000080 98 49 1b be a4 5d 2f 3e 00 35 50 3d 78 95 5b bd
       -0.15164793 0.17125565 0.050831795 -0.05360934
000090 b6 5c 3f be 2c 20 aa bd 14 94 16 bd fa a5 32 3e
       -0.1868771 -0.083069175 -0.036762312 0.17446128
0000a0 0e aa 1e 3e 80 40 cc 3a 08 46 eb 3c 6b a3 4d be
       0.15494558 0.0015583187 0.028719917 -0.2008187
0000b0 30 35 e6 3d 43 a9 d4 bd d5 60 49 be c0 a1 dd bc
       0.112406135 -0.103838466 -0.19665845 -0.027054667
0000c0 90 d3 79 bc 7c 34 01 bd b4 56 7a bd 34 3a c2 3d
       -0.015248194 -0.031544194 -0.061117843 0.094837576
0000d0 18 34 5b 3d bc 87 d2 3d 10 2f 16 bd 72 e1 84 bd
       0.053516477 0.102797955 -0.036665976 -0.06488313
0000e0 30 1c e5 bc 9c 15 39 3d 3d 1d 38 be b0 ca e3 3d
       -0.027967542 0.045186624 -0.17979904 0.11122644
0000f0 f2 ae 41 be 30 56 6e 3d da ea 1b 3e 40 cb 44 3e
       -0.18914393 0.058187664 0.15226308 0.19218159
000100 08 15 2f 3d 34 70 8f 3d 69 1a 1f be 26 aa 05 be
       0.042744666 0.07003823 -0.15537418 -0.13053188
000110 9c a2 34 3e 40 38 1c 3b 60 25 aa bd 80 d5 91 ba
       0.17640156 0.0023837239 -0.0830791 -0.001112625
000120 6c 8f e5 3d 5f b0 c2 bd c7 12 2f be 8c 80 bf 3d
       0.11208996 -0.09506296 -0.17097007 0.0935069
000130 87 e6 06 be ac b3 11 3e 50 e6 b8 3d d4 7d a3 bd
       -0.13173877 0.14228696 0.090283036 -0.07982984
000140 74 7a 18 3e 24 8d 0b be fb b2 d6 bd 2c d9 c8 3d
       0.14890462 -0.1362806 -0.104833566 0.09807047
000150 d8 da e8 bd f0 b0 6c bd 50 f8 bc 3c d0 7a 02 3d
       -0.11369866 -0.05778593 0.023067623 0.031855404
000160 6c e5 8b bd b6 b9 d0 bd 70 82 b3 3d d8 38 c9 3c
       -0.06830868 -0.101916716 0.08765113 0.024563238
000170 a4 e2 e8 3d 3c be aa bd 03 d7 2f be 2b 31 1e be
       0.11371353 -0.083370656 -0.17171864 -0.15448444
000180 b1 19 e1 bd bb c3 ba bd 6d 0f 49 be 4c 58 43 3e
       -0.10991228 -0.09119364 -0.1963479 0.19076651
000190 a8 19 95 3d 31 82 37 be 4c c9 66 bd 40 e7 3b 3c
       0.07280284 -0.17920758 -0.056344315 0.0114687085
0001a0 6e c8 ba bd ec 93 0d bd 34 85 fa 3d c4 07 11 3e
       -0.0912026 -0.034564897 0.12232438 0.14163119
0001b0 28 5a 74 bd fb 43 1f be 70 90 d1 3d ab 4b 20 be
       -0.059656292 -0.15553276 0.102326274 -0.15653865
0001c0 c8 af 93 3d 84 7d 27 be cc 8c 55 bd 5c 57 00 3e
       0.07211262 -0.16356474 -0.052136227 0.12533325
0001d0 f8 a2 ee bd 90 fc c0 3d 5d c9 d2 bd 9a 86 01 3e
       -0.116521776 0.094231725 -0.10292313 0.12649003
0001e0 e0 08 2e 3d ca 02 28 3e 92 06 22 be 8c 3f ee 3d
       0.042488933 0.16407314 -0.15822819 0.11633214
0001f0 be c5 9a bd 08 06 33 3e 49 02 af bd a4 47 0e 3e
       -0.075572476 0.1748277 -0.08545358 0.13894516
000200 98 a4 80 3d 5d cf 09 be dc d5 17 3d 80 d8 6f 3d
       0.06281394 -0.13458009 0.037069187 0.05855608
000210 50 3f c0 bd 42 93 17 3e c4 bb 59 bd 88 04 fc 3c
       -0.09387076 0.14802268 -0.053157583 0.03076388
000220 eb 6a dd bd f8 4c 3e be 34 45 2c 3e 03 8a aa bd
       -0.108114086 -0.18584049 0.16823274 -0.08327105
000230 ae 52 00 3e a0 be a4 bb e0 c5 18 3d d4 2e ae 3d
       0.1253154 -0.005027607 0.037298083 0.085050255
000240 d0 00 3e bd 20 a8 d9 3c 33 fd b3 bd 04 47 3b 3e
       -0.046387494 0.026569426 -0.08788528 0.18288809
000250 68 53 87 3d 56 b0 1e 3e c0 79 a5 3c 75 d1 a9 bd
       0.06607705 0.15496954 0.020199656 -0.08291904
000260 20 ac 85 3d 03 09 49 be b8 4e 78 3d e8 c7 ab 3d
       0.06526971 -0.19632344 0.060621947 0.083877385
000270 22 98 1d 3e e3 fa 40 be 7e 1f 16 3e 18 b7 e2 3d
       0.15390065 -0.18845706 0.14660451 0.110700786
000280 32 3d 32 3e 48 c8 21 be 44 c3 cf 3d 20 2d f9 3b
       0.17406157 -0.15799057 0.10144666 0.0076042563
000290 54 6f d3 3d 58 69 82 3c 02 58 06 be 00 17 08 bb
       0.103239685 0.015919372 -0.1311951 -0.0020765662
0002a0 08 bf 1b 3d 64 61 31 3d 88 a5 a3 3d a0 9e 8b 3d
       0.03802398 0.04330577 0.07990557 0.06817365
0002b0 d7 3c 39 be 76 dc 18 3e 64 21 bf 3d 40 f7 e6 bc
       -0.18089615 0.14927849 0.09332541 -0.02819407
0002c0 a0 29 1b 3e b8 67 c4 3d d4 aa 17 be 70 8b 2f 3c
       0.15152597 0.09590095 -0.1481126 0.010714397
0002d0 f7 d5 f7 bd e0 99 4e 3d 9f 82 ed bd c2 bd 4c 3e
       -0.121013574 0.050439715 -0.115971796 0.19994262
0002e0 08 6b b7 3c f5 e2 29 be 3e f6 19 3e bd 10 37 be
       0.022389904 -0.16590483 0.1503534 -0.17877479
0002f0 a0 d6 09 3e ac c6 43 3e ae 5b 24 be a0 48 77 3c
       0.13460779 0.19118756 -0.16050598 0.015092999
000300 29 6a 3e be 44 7b 43 3d 74 97 d4 3d f0 6d 7a 3d
       -0.18595184 0.047724977 0.1038045 0.06114
000310 4c f7 1c 3e b8 88 87 bd c8 15 c9 bc 80 d5 9c 3d
       0.15328711 -0.06617874 -0.024546519 0.076579094
000320 ab 41 d5 bd a3 35 f3 bd eb 1d e9 bd 74 83 98 3d
       -0.10412916 -0.11875465 -0.113826595 0.07446948
000330 fe 39 8b bd f8 33 c4 3d 70 3f 9f 3c ce ed 1d 3e
       -0.067981705 0.09580225 0.019439429 0.15422747
000340 58 a1 64 bd c8 c6 ed bc 67 6a ca bd 18 10 82 3d
       -0.055817932 -0.02902545 -0.09883576 0.06350726
000350 22 4f 3c 3e 80 ca 91 3c 94 1e e8 3d be 3b f6 bd
       0.18389562 0.017796755 0.11333957 -0.12023114
000360 14 fd fa bd 6a 34 49 3e b6 ef 35 be f0 fd 16 3d
       -0.12255302 0.196489 -0.17767224 0.036863267
000370 4e e2 45 be d8 b3 10 3e 74 18 ee bd ad 7b 19 be
       -0.1932461 0.14131105 -0.11625758 -0.14988585
000380 34 47 55 bd 18 bb 34 be 10 84 9b 3d 40 c2 8a bb
       -0.052069858 -0.17649496 0.07593548 -0.004234582
000390 1e d5 86 bd 92 6a 9d bd 94 46 14 be 89 4e c3 bd
       -0.06583618 -0.07686342 -0.14480048 -0.09536464
0003a0 e5 3d aa bd 8c 68 a2 3d d8 3e d1 3d d0 37 3f 3c
       -0.08312587 0.07930097 0.102170646 0.011671022
0003b0 82 d8 21 3e 6c db 08 3d 2b 51 40 be 20 82 0b bc
       0.15805247 0.033412382 -0.18780963 -0.008514911
0003c0 4c 21 7b bd 20 a7 35 bd a4 1c 39 be 52 72 20 3e
       -0.06131105 -0.044348836 -0.18077332 0.1566861
0003d0 30 06 17 bc ab f7 4c be 98 31 42 3d 40 70 00 bc
       -0.009217784 -0.20016353 0.047410578 -0.0078392625
0003e0 90 40 61 3c f6 4c 06 be 8f c5 db bd a8 e7 cb bd
       0.013748303 -0.13115296 -0.10731041 -0.09956294
0003f0 40 7b ca 3d c4 00 08 3e cc 2c 88 3d 60 b0 17 3e
       0.09886789 0.13281542 0.06649169 0.14813375

arith.constant21 f4 [128, 256]
000000 14 95 8f bd c0 10 c3 3c d8 9d f2 bd b8 14 6f 3d
       -0.07010856 0.023811698 -0.118465126 0.05836937
000010 58 a2 9c 3d 00 1a a4 bc b0 09 11 3d ac fe da bd
       0.07648152 -0.020031929 0.03540963 -0.10693106
000020 d8 b3 e6 3d 48 7e e4 bd 70 66 1b 3d 00 49 d6 bc
       0.11264771 -0.11156899 0.03793949 -0.026157856
000030 68 a3 fa 3d b8 9c e7 bd f8 b9 6c bd ec 6a db bd
       0.122381985 -0.113091886 -0.05779454 -0.10713753
000040 8c e2 fd 3d 80 f6 fa bd 48 69 4c 3d b0 44 da 3d
       0.12396726 -0.122540474 0.04990509 0.10657632
000050 00 e9 d1 3d 58 a2 be bd 48 c2 88 3d 00 68 75 3d
       0.10249519 -0.09308308 0.06677681 0.059913635
000060 d0 c2 0b bd 50 9c 1f 3d 68 45 22 bd 04 1b eb bd
       -0.034121335 0.03896743 -0.039616972 -0.11479762
000070 00 49 4a bd 80 8c bf 3b 20 53 40 3c 94 5a 85 3d
       -0.049386024 0.0058456063 0.011738569 0.06511417
000080 c0 1a 87 3b 5c 82 d4 3d 78 b8 75 bd 8c 15 ab 3d
       0.004123062 0.103764266 -0.059990376 0.08353719
000090 f0 08 93 3d 7c bc ed 3d b8 0c f2 bd ec d2 a9 3d
       0.07179439 0.11608216 -0.11818832 0.08292183
0000a0 78 b9 18 bd f8 12 14 3d 28 96 8e bd 00 a4 9b 39
       -0.03728625 0.036150903 -0.06962234 0.00029686093
0000b0 80 00 dc bb 00 3a b4 bc b0 73 af bc 08 25 7b bd
       -0.006713927 -0.022000313 -0.021417469 -0.061314613
0000c0 ec 0f ce 3d 78 47 86 3d 10 9f 7c 3d 4c f5 d3 3d
       0.100616306 0.065566 0.06167513 0.10349521
0000d0 d0 e4 26 bd e4 3c 9f 3d 88 7a e1 bd cc 60 8c bd
       -0.040745556 0.07775286 -0.11009699 -0.068544
0000e0 00 50 e5 38 c4 1f cb 3d dc be fa 3d b8 7b ca bd
       0.00010934472 0.09918168 0.12243435 -0.09886879
0000f0 08 a9 34 3d a0 9f 3c bd d4 a2 fd bd c8 59 67 3d
       0.044106513 -0.046050668 -0.123845726 0.056482106
000100 00 36 1a bd 74 9a c9 3d 18 e3 f9 3d 68 38 72 bd
       -0.037649155 0.09843913 0.12201518 -0.059135824
000110 68 42 9d 3d 50 ca bd 3d 30 ef ce 3d 10 22 ac bc
       0.076786816 0.09267104 0.10104215 -0.021012336
000120 78 8f 61 3d 50 9a c4 bd b8 ce 51 3d 00 6d b0 bb
       0.055068463 -0.09599745 0.051222533 -0.0053840876
000130 a0 65 55 3c 80 9e 49 bb dc c8 bd 3d 18 43 8e bd
       0.013024718 -0.003076464 0.092668265 -0.06946391
000140 d4 e2 89 bd 68 fe e2 bd 00 ac bb bb e0 8f cb bd
       -0.06732717 -0.110836804 -0.005727291 -0.09939551
000150 50 56 f0 bc a0 33 91 bc 20 73 b4 3c 38 c9 6c 3d
       -0.029338032 -0.017724812 0.022027552 0.057809085
000160 54 55 a9 3d f8 2b f6 bd 48 44 97 3d 70 35 a3 bc
       0.08268228 -0.12020105 0.073860705 -0.019922942
000170 ac 19 af bd 40 84 b8 bb 10 e3 a6 bc 00 b4 ba 3a
       -0.085498184 -0.005631 -0.020371944 0.0014244318
000180 d0 a5 9c bc e0 86 77 3d b8 fc 78 bd a4 ea 85 3d
       -0.019122034 0.06043136 -0.060787886 0.06538895
000190 20 66 cb bc 60 c3 db bd b8 88 0f bd 00 1d a2 bb
       -0.02482897 -0.10730624 -0.035042495 -0.0049473047
0001a0 20 fb f6 bc b4 dc c3 3d 20 5c 0f 3c 60 f0 e9 3c
       -0.030149043 0.0956358 0.008749992 0.028557003
0001b0 30 fd eb 3c 5c 3e b1 bd 30 ac 9a 3c 3c 2b eb 3d
       0.028807253 -0.08654472 0.018880934 0.11482856
0001c0 a0 a6 bf 3c 00 a5 52 3c c0 f5 59 3c 78 50 ae 3d
       0.023394883 0.012856722 0.01330322 0.08511442
0001d0 10 2f dc bc 30 29 77 bd ec 7d a2 3d 30 b9 0d 3d
       -0.02687791 -0.060342014 0.07934174 0.034600437
0001e0 b8 68 90 3d 50 c0 dc bd bc ee f5 bd 38 b8 99 bd
       0.070512235 -0.10778868 -0.120084256 -0.0750584
0001f0 70 2f c5 bd 60 26 c9 3d bc 87 96 3d c0 bb 41 3d
       -0.096281886 0.098217726 0.07350108 0.047298193
000200 58 a2 73 bd 30 d8 86 3c 00 84 6c ba d8 d5 aa bd
       -0.059480995 0.016460508 -0.0009022355 -0.08341569
000210 00 4d 7e 3d 44 1e b0 3d cc fd ea 3d 40 c7 31 3c
       0.06208515 0.08599523 0.11474189 0.010850728
000220 e0 cc fd 3d 20 1a d3 bd 58 68 d6 bd 94 be 98 bd
       0.123925924 -0.10307717 -0.10469121 -0.07458225
000230 a0 5f f0 3d 00 24 af 3b b8 3e 83 3d 00 3f 50 3b
       0.11736989 0.0053448677 0.06408447 0.0031775832
000240 a0 fb 59 bc 64 eb d5 3d d0 5c b0 3c c8 bd 18 3d
       -0.013304621 0.10445288 0.021528631 0.037290365
000250 78 1e b6 bd 90 1d bf 3c d0 2c c0 3c f0 45 bb bd
       -0.0889253 0.023329526 0.023458868 -0.09144199
000260 58 31 15 bd 6c 5c 99 3d d8 94 ad bd 64 32 86 bd
       -0.03642401 0.07488331 -0.08475655 -0.0655258
000270 38 25 60 bd 80 83 54 bb 20 ae ce bd d8 46 7b bd
       -0.054722995 -0.0032427013 -0.100918055 -0.06134686
000280 6c 99 fa 3d 70 10 d6 bd 40 16 a9 bd a8 08 fc bd
       0.12236294 -0.10452354 -0.08256197 -0.123063385
000290 14 6b 81 bd a4 ab e3 bd 10 3e 90 3c 84 71 80 bd
       -0.06319252 -0.11116722 0.017607719 -0.062716514
0002a0 f8 c7 90 3d 10 d7 d4 bc 30 4f b3 3d 20 31 d3 bd
       0.07069391 -0.025981456 0.08755338 -0.10312104
0002b0 a0 da a5 3d 10 ef cf bc 0c a2 c9 bd f0 dc c3 3c
       0.0809834 -0.025382549 -0.09845361 0.023909062
0002c0 c0 3d 7d 3d 40 45 e8 3b 18 ae d0 3d c0 0e d7 3b
       0.061826468 0.0070883334 0.10189456 0.0065630376
0002d0 18 71 88 bd 70 78 cf bc 5c 56 89 bd f0 fc 28 3d
       -0.06662196 -0.025325984 -0.06705925 0.041256845
0002e0 40 ed 05 bc 60 e3 37 bd b0 87 d2 bd c8 19 7a 3d
       -0.008174241 -0.044894576 -0.102797866 0.061059743
0002f0 9c 53 d0 bd 20 83 d2 3c 80 04 7d bc 70 d6 19 3d
       -0.10172197 0.02569729 -0.015442967 0.03755802
000300 80 a7 b7 bd ec 4a ec 3d 00 03 c4 bd 40 34 ca bb
       -0.08967495 0.11537728 -0.09570885 -0.0061707795
000310 b8 44 d9 3d 70 04 ea 3d 40 6c ab bb 50 8c d4 bd
       0.1060881 0.11426628 -0.0052314103 -0.10378325
000320 00 3a cf 3b 5c c4 cb bd 60 ec 19 3d a4 bc 82 3d
       0.006324053 -0.09949562 0.03757894 0.063836366
000330 78 05 a8 bd 08 6c 6c bd 00 13 40 3c f0 a5 be 3c
       -0.08204168 -0.057720214 0.01172328 0.023272485
000340 48 f7 20 bd 50 e9 90 bc 34 07 f9 bd f8 20 ee 3d
       -0.039298326 -0.017689377 -0.12159577 0.11627382
000350 80 34 c1 3b 00 4b 0b 3d dc 9e b7 bd 5c ef 9d bd
       0.005896151 0.034007072 -0.08965847 -0.0771167
000360 c4 8c db 3d d8 64 81 bd d0 60 97 3d 08 63 3c 3d
       0.10720208 -0.063180625 0.073915124 0.04599288
000370 68 88 be bd c8 3e a0 3d 20 22 44 bc 5c f5 90 bd
       -0.09303361 0.078244746 -0.011971027 -0.070780486
000380 d8 34 01 3d b8 b8 eb 3d 4c 15 81 3d 60 ac 02 bd
       0.031544536 0.11509842 0.0630289 -0.03190267
000390 68 63 47 bd 70 28 b9 3c a0 ac f7 3c 30 44 20 bd
       -0.048678786 0.02260229 0.030233681 -0.03912753
0003a0 7c cd cf 3d 1c 22 c6 3d b0 ef 0a bd 68 e1 13 bd
       0.10146615 0.096744746 -0.03391999 -0.036103636
0003b0 b0 89 ab 3c 28 76 ed 3d 84 51 ae 3d 34 d7 b2 bd
       0.020939678 0.11594802 0.085116416 -0.08732453
0003c0 a8 f4 4a bd d0 cd 3d bd f8 6f e6 bd 08 01 7d 3d
       -0.04954973 -0.046338856 -0.11251825 0.06176856
0003d0 e4 d0 99 3d 28 d4 44 bd 10 ed a5 3c 00 04 41 bc
       0.07510546 -0.04805389 0.020254642 -0.011780739
0003e0 50 68 ee 3c 60 8a 75 3c 80 92 1e bd 30 12 4c bd
       0.029102474 0.014986604 -0.038713932 -0.049822032
0003f0 b0 46 93 3c 4c e3 bf bd 50 92 ed 3c c0 4f 38 bd
       0.017978042 -0.09369525 0.029000431 -0.04499793

arith.constant22 f4 [256, 64]
000000 80 09 db ba d6 c5 cf bd b2 81 a9 3d f4 06 30 bd
       -0.0016711205 -0.10145156 0.082766905 -0.04297538
000010 da 70 88 bd 9c 66 19 3d 4b 36 aa bd c0 b3 8d 3d
       -0.0666215 0.03745137 -0.08311137 0.0691905
000020 48 fd c2 bd 50 43 86 3c e6 00 c0 3d fc fa 02 3e
       -0.09520966 0.016389519 0.09375171 0.12791055
000030 8d 2b be bd 8c 3c d3 bd 40 de 85 3d 44 bc a9 bc
       -0.092856504 -0.10314283 0.065365314 -0.020719655
000040 a8 07 4a 3d 00 03 47 bd 34 a0 f1 3d 8c e0 e3 bd
       0.049323708 -0.048586845 0.117981344 -0.11126813
000050 54 a0 91 3d a8 b6 b1 bc b0 a1 80 3c f8 25 45 3d
       0.07110658 -0.021693543 0.015702099 0.048131913
000060 20 b4 fc 3d 84 81 66 3d 54 de 84 bc 56 90 ca 3d
       0.123390436 0.05627586 -0.016219296 0.09890811
000070 d4 29 46 3d 70 54 5c bd 0a a7 11 bd 6c 38 73 bd
       0.048379734 -0.053791463 -0.03555969 -0.05937998
000080 0a b5 04 3e d0 79 c8 bc 8e 80 e1 3d 50 be ed 3d
       0.12959686 -0.024472147 0.11010848 0.11608565
000090 00 d4 d8 3c 80 62 77 3b 6c ae a1 3d c0 d1 aa 3c
       0.026468277 0.003774792 0.078945965 0.02085197
0000a0 a8 be ed 3c 28 d8 1a 3d 6c a6 c9 3d 28 10 0a 3e
       0.029021576 0.0378038 0.098461956 0.13482726
0000b0 1c 34 ad bd a8 55 56 3d 92 74 c6 bd 10 ba 89 bc
       -0.08457205 0.052327782 -0.09690203 -0.016812354
0000c0 d0 6e 4d bd ba 2a bc 3d 00 9d 52 3c 4b a0 aa bd
       -0.050154507 0.09187837 0.0128548145 -0.08331355
0000d0 76 a6 fb bd 40 50 2a bb 0a 74 a9 bd d0 ff cd 3c
       -0.12287609 -0.0025987774 -0.08274086 0.025146395
0000e0 3e 7c 08 be 2c 96 53 3d 5c be 14 bd 00 2d 8b 3c
       -0.13328645 0.051656887 -0.036314353 0.016989231
0000f0 30 de b5 3c b2 ae a1 3d 0a a3 88 3d 60 4c ac 3b
       0.022200674 0.078946486 0.06671722 0.005258128
000100 3c 9f c3 bd 84 a7 58 bd 86 85 86 3d e0 33 43 3d
       -0.09551856 -0.05289413 0.06568436 0.047656894
000110 8c e2 db 3d 68 33 90 bd 20 a5 1c 3d 92 ec fb bd
       0.1073657 -0.07041055 0.038243413 -0.123009816
000120 00 5e 6a 3b 50 c7 c8 3c 30 73 df bd e0 50 17 3c
       0.0035761595 0.024509102 -0.10910642 0.009235591
000130 e2 4d 49 bd e4 3e 45 3d a4 bd 00 be 00 66 2b bb
       -0.04914654 0.04815568 -0.12572342 -0.0026153326
000140 00 f5 02 bb 00 ec 77 3b a8 fc 9b bd 5a 6d e3 3d
       -0.0019982457 0.0037829876 -0.0761655 0.111048415
000150 a0 95 63 3d 28 aa 94 3c 47 2f 86 bd aa d0 32 bd
       0.055562615 0.018147543 -0.06551986 -0.04365603
000160 f2 fa 09 be 10 e8 07 3e d4 8c 9c bd c8 14 e6 bc
       -0.13474634 0.13272119 -0.07644048 -0.028086081
000170 80 f4 ca 3c 14 81 9f bd ec 52 00 3e cb 86 97 bd
       0.02477479 -0.077882916 0.12531632 -0.073987566
000180 57 3e 84 bd 5c 55 7a bd d0 7b 63 bd dc 01 c6 bd
       -0.06457203 -0.06111656 -0.055538 -0.096683234
000190 c8 63 c6 3d 80 71 94 bb 60 a5 a8 bb f0 6a db 3c
       0.096870005 -0.004530132 -0.0051466674 0.02678439
0001a0 20 7e 8f bb c0 0d 6b 3c 70 f9 60 3c b0 c9 55 3c
       -0.004379049 0.01434654 0.0137313455 0.013048574
0001b0 50 9a c2 3d c9 9d d3 bd 48 9e b8 3d 96 a3 a1 3d
       0.09502089 -0.103328295 0.09014565 0.0789253
0001c0 b8 f8 a0 3c 6e fd 92 bd 20 7c b5 bd 64 ae a7 3d
       0.019649848 -0.07177244 -0.088615656 0.08187559
0001d0 2c f6 3d 3d fa d8 48 bd bc 94 42 bd f2 36 b0 3d
       0.046377346 -0.04903505 -0.047505125 0.0860423
0001e0 70 7c 01 3c c2 e3 12 bd 0e 9c e2 3d 00 02 7f ba
       0.007903203 -0.035861738 0.11064921 -0.0009727776
0001f0 22 85 23 bd e6 0a bb 3d 2e ad 52 bd 9c 59 09 3e
       -0.039921887 0.09132938 -0.05143469 0.1341309
000200 2f 1d da bd 49 f6 e7 bd 9e ef 90 3d 50 7a 6a 3c
       -0.106500976 -0.11326272 0.07076953 0.014311388
000210 b0 9b f7 3d 00 11 ca ba 72 1d 8e 3d 60 97 9e 3b
       0.12090242 -0.0015416443 0.0693921 0.0048398226
000220 aa ca af 3d 83 36 0b be 34 77 dc 3d 5a a1 d9 3d
       0.08583577 -0.13595013 0.10764924 0.106264785
000230 93 85 fe bd 70 3f de bd e8 dd d8 bc 02 fc cb 3d
       -0.12427821 -0.108519435 -0.026473 0.09960176
000240 00 a6 bd 3c 14 1b b0 3d 80 2c f9 3d dc 75 35 3d
       0.023150444 0.08598915 0.12166691 0.044301853
000250 f2 2b 87 3d 2e d4 f5 bd 8a 6f d1 bd 40 ed d0 bc
       0.06600179 -0.12003361 -0.102263525 -0.025503755
000260 66 38 a8 bd 40 b1 a0 3d 9e d6 89 bd 42 33 bd 3d
       -0.08213882 0.07846308 -0.06730388 0.09238292
000270 60 77 c9 bd 5a ea ad 3d 64 90 fc 3d 28 a9 8f 3d
       -0.09837222 0.08491965 0.12332228 0.07014686
000280 38 6d 11 bd 0c a5 ec 3d ec 6b 3e 3d 28 df 0b 3d
       -0.03550455 0.11554918 0.04648964 0.034148365
000290 c0 8b 6e bb fc 4c c2 3d 4c bd 9c 3d f0 06 b5 3c
       -0.0036399215 0.0948734 0.07653293 0.022098035
0002a0 47 8c 94 bd 1e 85 cd bd 58 8c c2 bc 24 15 c2 bc
       -0.07253318 -0.10035156 -0.023748562 -0.023691721
0002b0 c8 ac 6a 3d 94 ef 03 3e fc b7 82 bd 4e ef cd 3d
       0.057293683 0.1288436 -0.063827485 0.10055409
0002c0 40 7c 68 3c b4 f6 9d bd 40 f5 55 3b 20 8a ed 3d
       0.01418978 -0.077130705 0.00326474 0.11598611
0002d0 0c ef b4 bc fe cf 0b 3e 50 44 7d 3d 70 ab a7 bc
       -0.022086643 0.13653561 0.061832726 -0.02046749
0002e0 05 57 84 bd df 86 07 be 28 40 b7 3c a8 77 cb 3c
       -0.0646191 -0.13235043 0.02236946 0.02483733
0002f0 42 13 08 be 20 bb ea 3c 68 e7 3e bd b6 55 81 3d
       -0.13288596 0.028653681 -0.046607405 0.06315176
000300 00 4c 2f ba 31 70 83 bd 62 1e 99 bd 0a 86 e2 3d
       -0.0006687045 -0.06417883 -0.07476498 0.11060722
000310 14 6d 03 3e c4 6f e9 3d 88 ef 98 3d 25 c0 8b bd
       0.12834579 0.11398271 0.07467562 -0.06823758
000320 00 bb 42 3d 94 5f 0e 3d 88 96 05 3e 20 75 32 3d
       0.04754162 0.03475912 0.13045704 0.04356873
000330 54 76 64 3d 30 34 2b bc 7a 04 f4 bd e0 bc 20 bc
       0.05577691 -0.010449454 -0.11914916 -0.009810656
000340 ca c7 bc 3d 9c a7 d1 bd 43 ca bb bd 00 2b 3d ba
       0.09217794 -0.10237047 -0.09169438 -0.00072161853
000350 42 5e c5 3d 02 b6 02 3e c2 85 c6 bd 90 8c 49 bc
       0.09637119 0.12764743 -0.09693481 -0.012301579
000360 42 c3 ad bd 16 00 05 3e 40 04 0a 3d c0 f8 89 3b
       -0.08484508 0.12988314 0.03369546 0.0042105615
000370 e0 25 82 3d 80 e6 9a 3d 52 b2 6b bd 5b c9 eb bd
       0.0635488 0.07563496 -0.057543106 -0.11513015
000380 42 1c c3 3d 3c fd 4c 3d 5c b5 ce 3d c0 26 94 3b
       0.09526874 0.05004619 0.10093185 0.004521221
000390 e6 d5 dd 3d 36 e3 a3 3d 08 fa 13 3d 48 10 e5 bc
       0.108318135 0.080023214 0.03612712 -0.027961865
0003a0 b4 75 16 3d c0 25 09 3e 9e 81 8b 3d 96 b3 b0 bd
       0.036733344 0.13393307 0.06811832 -0.08628003
0003b0 c0 cb ea 3c 04 2d 24 3d 32 b3 de 3d c0 ce 9b bb
       0.028661609 0.040081993 0.108740225 -0.004754871
0003c0 fc f9 ef bd 20 58 01 bd 50 bb e8 bd 10 ab cc 3c
       -0.117176026 -0.031578183 -0.11363852 0.024983913
0003d0 b8 d7 09 3d 80 1b 0a bc 32 5a ad bd e0 7d b0 3d
       0.03365299 -0.008429408 -0.08464469 0.08617759
0003e0 02 0f f8 bd 02 15 ff bd 66 6f 0a be 2e ce 07 3e
       -0.121122375 -0.12455179 -0.13519058 0.13262245
0003f0 b0 50 bd bc c0 26 2d 3c f8 08 82 3d 22 1b 99 3d
       -0.023109764 0.010568321 0.06349367 0.07475878

arith.constant23 f4 [64, 2]
000000 e0 a7 ad 3c ff aa 94 be 00 bf 63 3c d8 d3 3c 3e
       0.021198213 -0.2903671 0.013900518 0.18440187
000010 ac 71 78 be 7c e1 4b 3e fc 15 00 3e 5e 09 05 3e
       -0.24262112 0.19910234 0.12508386 0.12991855
000020 cc 26 e3 3d be 3b 30 3e a8 fa 04 3d c4 40 5a be
       0.11091384 0.1721029 0.032465607 -0.21313769
000030 10 49 ae bc 80 d1 fe 3c cc ad 82 be f4 c2 c1 3d
       -0.021275073 0.031105757 -0.25523221 0.094610125
000040 34 a9 e3 3d 9c c7 26 3e 4c d2 32 be 3c 4a 9d bd
       0.11116257 0.16287082 -0.17463034 -0.07680175
000050 34 1d 4f 3e 20 ee 32 bd 68 fc cb bd b1 8f 53 be
       0.20225984 -0.043684125 -0.09960252 -0.20660283
000060 d0 ee e8 3c 41 29 82 be 18 65 95 bd 94 c6 6d be
       0.028434187 -0.254221 -0.07294673 -0.23220283
000070 44 95 a0 3d 6c ac 53 3e 54 ec 2c be cc 8b 4b be
       0.0784097 0.20671242 -0.16887027 -0.19877547
000080 86 06 8d 3e d1 d3 1a be 68 5b 7a 3e bc 2b 51 be
       0.2754404 -0.15119864 0.24448931 -0.2042684
000090 b0 7b dd 3c 50 96 da 3d 1c b6 8e be f6 3d 49 3e
       0.027036518 0.10673201 -0.27873313 0.19652542
0000a0 d8 a5 86 3e 58 26 0d be 78 4d 93 be e8 5b 95 3e
       0.26298404 -0.13784158 -0.2877004 0.2917168
0000b0 c0 06 bc 3c 36 b6 10 be d4 0a 91 3d 1c 62 7c bd
       0.022952437 -0.14132008 0.070821434 -0.061617002
0000c0 40 be 5d 3e b8 76 05 3e c2 38 c9 bd cc 72 15 3e
       0.21654606 0.13033569 -0.09825279 0.14594573
0000d0 fe bc e7 bd 28 ad 75 bd 10 5f 05 bd e8 19 9a be
       -0.11315344 -0.059979588 -0.03256136 -0.3009789
0000e0 a0 ce c4 3d 18 5c 80 3e d8 62 64 3e f6 65 84 3e
       0.09609723 0.25070262 0.22303331 0.2585904
0000f0 e3 2f 95 be a8 06 4a be 7e 3a 98 bd 1c 08 6b 3e
       -0.29138097 -0.19729102 -0.074330315 0.22952312
000100 ce 00 91 be 9c 8d fa 3d 94 f6 7e 3e e0 44 9b 3d
       -0.28320926 0.12234041 0.2489875 0.07581496
000110 df 3c 2e be 40 bc ff bd 10 b0 f2 3c 90 15 bc 3c
       -0.17015408 -0.12487078 0.029624969 0.0229595
000120 04 ba 2c be 48 08 fd 3d 96 f5 5d be 00 09 fc bc
       -0.16867834 0.12355095 -0.21675715 -0.03076601
000130 3c ad a9 3d c8 e3 2f 3d 00 7f 2a 3b 9c 8d 94 be
       0.08284995 0.04294184 0.002601564 -0.2901429
000140 06 e3 90 3e 08 d8 88 3d 5a 47 70 be d1 84 5b be
       0.28298205 0.0668183 -0.23464718 -0.21437384
000150 08 c6 ec bd 74 7c ef bd 68 6b 57 3e 5e aa 15 be
       -0.11561209 -0.116936594 0.21037066 -0.14615771
000160 a8 c3 d8 bd ba 45 ae bd 89 96 88 be 4c 4a 1f 3e
       -0.105841935 -0.08509393 -0.2667735 0.15555686
000170 80 2b fe 3c 28 aa 67 3d 63 ed 5d be 80 98 6d bb
       0.031026602 0.056558758 -0.21672587 -0.0036254227
000180 fc 3b 2c 3e a2 3a 2f 3e 38 75 5f be 76 1f 8a be
       0.16819757 0.1711221 -0.21822059 -0.26977128
000190 e8 4d 5d 3d cc c3 82 be f0 bb 22 3e 56 ae 23 3e
       0.054029375 -0.25540006 0.15892005 0.15984473
0001a0 64 38 8d 3e 88 eb ea 3d 54 7c 8f be 9e bd a3 bd
       0.27582085 0.11470705 -0.28024542 -0.07995151
0001b0 53 9c 73 be 72 57 97 3e c8 18 c6 3d 24 21 b2 bd
       -0.23790102 0.29558903 0.096726954 -0.08697727
0001c0 a8 c7 b4 3d f8 f6 92 3e 4e ca 2f 3e 44 55 58 be
       0.08827144 0.28704047 0.17167017 -0.21126276
0001d0 19 bb 7c be b8 2a 15 3d 64 6b 97 3d c8 cc 51 3e
       -0.24680747 0.036417693 0.0739353 0.20488274
0001e0 b7 26 1d be d8 38 fa 3d a0 c7 1c be 98 03 74 3e
       -0.153468 0.12217873 -0.15310526 0.23829496
0001f0 80 d9 ab 3c a0 80 4b 3e 2c 83 46 3e 0e dc cc bd
       0.020977736 0.19873285 0.19385976 -0.100029096

arith.constant24 f4 [19]
000000 00 00 00 00 00 00 00 00 00 00 00 00 00 00 00 00
       0.0 0.0 0.0 0.0
000010 00 00 00 00 00 00 00 00 00 00 00 00 00 00 00 00
       0.0 0.0 0.0 0.0
000020 00 00 00 00 00 00 00 00 00 00 00 00 00 00 00 00
       0.0 0.0 0.0 0.0
000030 00 00 00 00 00 00 00 00 00 00 00 00 00 00 00 00
       0.0 0.0 0.0 0.0
000040 00 00 00 00 00 00 00 00 00 00 00 00
       0.0 0.0 0.0

arith.constant25 f4 [19, 19]
000000 00 00 00 00 00 00 00 00 00 00 00 00 00 00 00 00
       0.0 0.0 0.0 0.0
000010 00 00 00 00 00 00 00 00 00 00 00 00 00 00 00 00
       0.0 0.0 0.0 0.0
000020 00 00 00 00 00 00 00 00 00 00 00 00 00 00 00 00
       0.0 0.0 0.0 0.0
000030 00 00 00 00 00 00 00 00 00 00 00 00 00 00 00 00
       0.0 0.0 0.0 0.0
000040 00 00 00 00 00 00 00 00 00 00 00 00 00 00 00 00
       0.0 0.0 0.0 0.0
000050 00 00 00 00 00 00 00 00 00 00 00 00 00 00 00 00
       0.0 0.0 0.0 0.0
000060 00 00 00 00 00 00 00 00 00 00 00 00 00 00 00 00
       0.0 0.0 0.0 0.0
000070 00 00 00 00 00 00 00 00 00 00 00 00 00 00 00 00
       0.0 0.0 0.0 0.0
000080 00 00 00 00 00 00 00 00 00 00 00 00 00 00 00 00
       0.0 0.0 0.0 0.0
000090 00 00 00 00 00 00 00 00 00 00 00 00 00 00 00 00
       0.0 0.0 0.0 0.0
0000a0 00 00 00 00 00 00 00 00 00 00 00 00 00 00 00 00
       0.0 0.0 0.0 0.0
0000b0 00 00 00 00 00 00 00 00 00 00 00 00 00 00 00 00
       0.0 0.0 0.0 0.0
0000c0 00 00 00 00 00 00 00 00 00 00 00 00 00 00 00 00
       0.0 0.0 0.0 0.0
0000d0 00 00 00 00 00 00 00 00 00 00 00 00 00 00 00 00
       0.0 0.0 0.0 0.0
0000e0 00 00 00 00 00 00 00 00 00 00 00 00 00 00 00 00
       0.0 0.0 0.0 0.0
0000f0 00 00 00 00 00 00 00 00 00 00 00 00 00 00 00 00
       0.0 0.0 0.0 0.0
000100 00 00 00 00 00 00 00 00 00 00 00 00 00 00 00 00
       0.0 0.0 0.0 0.0
000110 00 00 00 00 00 00 00 00 00 00 00 00 00 00 00 00
       0.0 0.0 0.0 0.0
000120 00 00 00 00 00 00 00 00 00 00 00 00 00 00 00 00
       0.0 0.0 0.0 0.0
000130 00 00 00 00 00 00 00 00 00 00 00 00 00 00 00 00
       0.0 0.0 0.0 0.0
000140 00 00 00 00 00 00 00 00 00 00 00 00 00 00 00 00
       0.0 0.0 0.0 0.0
000150 00 00 00 00 00 00 00 00 00 00 00 00 00 00 00 00
       0.0 0.0 0.0 0.0
000160 00 00 00 00 00 00 00 00 00 00 00 00 00 00 00 00
       0.0 0.0 0.0 0.0
000170 00 00 00 00 00 00 00 00 00 00 00 00 00 00 00 00
       0.0 0.0 0.0 0.0
000180 00 00 00 00 00 00 00 00 00 00 00 00 00 00 00 00
       0.0 0.0 0.0 0.0
000190 00 00 00 00 00 00 00 00 00 00 00 00 00 00 00 00
       0.0 0.0 0.0 0.0
0001a0 00 00 00 00 00 00 00 00 00 00 00 00 00 00 00 00
       0.0 0.0 0.0 0.0
0001b0 00 00 00 00 00 00 00 00 00 00 00 00 00 00 00 00
       0.0 0.0 0.0 0.0
0001c0 00 00 00 00 00 00 00 00 00 00 00 00 00 00 00 00
       0.0 0.0 0.0 0.0
0001d0 00 00 00 00 00 00 00 00 00 00 00 00 00 00 00 00
       0.0 0.0 0.0 0.0
0001e0 00 00 00 00 00 00 00 00 00 00 00 00 00 00 00 00
       0.0 0.0 0.0 0.0
0001f0 00 00 00 00 00 00 00 00 00 00 00 00 00 00 00 00
       0.0 0.0 0.0 0.0
000200 00 00 00 00 00 00 00 00 00 00 00 00 00 00 00 00
       0.0 0.0 0.0 0.0
000210 00 00 00 00 00 00 00 00 00 00 00 00 00 00 00 00
       0.0 0.0 0.0 0.0
000220 00 00 00 00 00 00 00 00 00 00 00 00 00 00 00 00
       0.0 0.0 0.0 0.0
000230 00 00 00 00 00 00 00 00 00 00 00 00 00 00 00 00
       0.0 0.0 0.0 0.0
000240 00 00 00 00 00 00 00 00 00 00 00 00 00 00 00 00
       0.0 0.0 0.0 0.0
000250 00 00 00 00 00 00 00 00 00 00 00 00 00 00 00 00
       0.0 0.0 0.0 0.0
000260 00 00 00 00 00 00 00 00 00 00 00 00 00 00 00 00
       0.0 0.0 0.0 0.0
000270 00 00 00 00 00 00 00 00 00 00 00 00 00 00 00 00
       0.0 0.0 0.0 0.0
000280 00 00 00 00 00 00 00 00 00 00 00 00 00 00 00 00
       0.0 0.0 0.0 0.0
000290 00 00 00 00 00 00 00 00 00 00 00 00 00 00 00 00
       0.0 0.0 0.0 0.0
0002a0 00 00 00 00 00 00 00 00 00 00 00 00 00 00 00 00
       0.0 0.0 0.0 0.0
0002b0 00 00 00 00 00 00 00 00 00 00 00 00 00 00 00 00
       0.0 0.0 0.0 0.0
0002c0 00 00 00 00 00 00 00 00 00 00 00 00 00 00 00 00
       0.0 0.0 0.0 0.0
0002d0 00 00 00 00 00 00 00 00 00 00 00 00 00 00 00 00
       0.0 0.0 0.0 0.0
0002e0 00 00 00 00 00 00 00 00 00 00 00 00 00 00 00 00
       0.0 0.0 0.0 0.0
0002f0 00 00 00 00 00 00 00 00 00 00 00 00 00 00 00 00
       0.0 0.0 0.0 0.0
000300 00 00 00 00 00 00 00 00 00 00 00 00 00 00 00 00
       0.0 0.0 0.0 0.0
000310 00 00 00 00 00 00 00 00 00 00 00 00 00 00 00 00
       0.0 0.0 0.0 0.0
000320 00 00 00 00 00 00 00 00 00 00 00 00 00 00 00 00
       0.0 0.0 0.0 0.0
000330 00 00 00 00 00 00 00 00 00 00 00 00 00 00 00 00
       0.0 0.0 0.0 0.0
000340 00 00 00 00 00 00 00 00 00 00 00 00 00 00 00 00
       0.0 0.0 0.0 0.0
000350 00 00 00 00 00 00 00 00 00 00 00 00 00 00 00 00
       0.0 0.0 0.0 0.0
000360 00 00 00 00 00 00 00 00 00 00 00 00 00 00 00 00
       0.0 0.0 0.0 0.0
000370 00 00 00 00 00 00 00 00 00 00 00 00 00 00 00 00
       0.0 0.0 0.0 0.0
000380 00 00 00 00 00 00 00 00 00 00 00 00 00 00 00 00
       0.0 0.0 0.0 0.0
000390 00 00 00 00 00 00 00 00 00 00 00 00 00 00 00 00
       0.0 0.0 0.0 0.0
0003a0 00 00 00 00 00 00 00 00 00 00 00 00 00 00 00 00
       0.0 0.0 0.0 0.0
0003b0 00 00 00 00 00 00 00 00 00 00 00 00 00 00 00 00
       0.0 0.0 0.0 0.0
0003c0 00 00 00 00 00 00 00 00 00 00 00 00 00 00 00 00
       0.0 0.0 0.0 0.0
0003d0 00 00 00 00 00 00 00 00 00 00 00 00 00 00 00 00
       0.0 0.0 0.0 0.0
0003e0 00 00 00 00 00 00 00 00 00 00 00 00 00 00 00 00
       0.0 0.0 0.0 0.0
0003f0 00 00 00 00 00 00 00 00 00 00 00 00 00 00 00 00
       0.0 0.0 0.0 0.0

arith.constant26 f4 [128]
000000 00 00 00 00 00 00 00 00 00 00 00 00 00 00 00 00
       0.0 0.0 0.0 0.0
000010 00 00 00 00 00 00 00 00 00 00 00 00 00 00 00 00
       0.0 0.0 0.0 0.0
000020 00 00 00 00 00 00 00 00 00 00 00 00 00 00 00 00
       0.0 0.0 0.0 0.0
000030 00 00 00 00 00 00 00 00 00 00 00 00 00 00 00 00
       0.0 0.0 0.0 0.0
000040 00 00 00 00 00 00 00 00 00 00 00 00 00 00 00 00
       0.0 0.0 0.0 0.0
000050 00 00 00 00 00 00 00 00 00 00 00 00 00 00 00 00
       0.0 0.0 0.0 0.0
000060 00 00 00 00 00 00 00 00 00 00 00 00 00 00 00 00
       0.0 0.0 0.0 0.0
000070 00 00 00 00 00 00 00 00 00 00 00 00 00 00 00 00
       0.0 0.0 0.0 0.0
000080 00 00 00 00 00 00 00 00 00 00 00 00 00 00 00 00
       0.0 0.0 0.0 0.0
000090 00 00 00 00 00 00 00 00 00 00 00 00 00 00 00 00
       0.0 0.0 0.0 0.0
0000a0 00 00 00 00 00 00 00 00 00 00 00 00 00 00 00 00
       0.0 0.0 0.0 0.0
0000b0 00 00 00 00 00 00 00 00 00 00 00 00 00 00 00 00
       0.0 0.0 0.0 0.0
0000c0 00 00 00 00 00 00 00 00 00 00 00 00 00 00 00 00
       0.0 0.0 0.0 0.0
0000d0 00 00 00 00 00 00 00 00 00 00 00 00 00 00 00 00
       0.0 0.0 0.0 0.0
0000e0 00 00 00 00 00 00 00 00 00 00 00 00 00 00 00 00
       0.0 0.0 0.0 0.0
0000f0 00 00 00 00 00 00 00 00 00 00 00 00 00 00 00 00
       0.0 0.0 0.0 0.0
000100 00 00 00 00 00 00 00 00 00 00 00 00 00 00 00 00
       0.0 0.0 0.0 0.0
000110 00 00 00 00 00 00 00 00 00 00 00 00 00 00 00 00
       0.0 0.0 0.0 0.0
000120 00 00 00 00 00 00 00 00 00 00 00 00 00 00 00 00
       0.0 0.0 0.0 0.0
000130 00 00 00 00 00 00 00 00 00 00 00 00 00 00 00 00
       0.0 0.0 0.0 0.0
000140 00 00 00 00 00 00 00 00 00 00 00 00 00 00 00 00
       0.0 0.0 0.0 0.0
000150 00 00 00 00 00 00 00 00 00 00 00 00 00 00 00 00
       0.0 0.0 0.0 0.0
000160 00 00 00 00 00 00 00 00 00 00 00 00 00 00 00 00
       0.0 0.0 0.0 0.0
000170 00 00 00 00 00 00 00 00 00 00 00 00 00 00 00 00
       0.0 0.0 0.0 0.0
000180 00 00 00 00 00 00 00 00 00 00 00 00 00 00 00 00
       0.0 0.0 0.0 0.0
000190 00 00 00 00 00 00 00 00 00 00 00 00 00 00 00 00
       0.0 0.0 0.0 0.0
0001a0 00 00 00 00 00 00 00 00 00 00 00 00 00 00 00 00
       0.0 0.0 0.0 0.0
0001b0 00 00 00 00 00 00 00 00 00 00 00 00 00 00 00 00
       0.0 0.0 0.0 0.0
0001c0 00 00 00 00 00 00 00 00 00 00 00 00 00 00 00 00
       0.0 0.0 0.0 0.0
0001d0 00 00 00 00 00 00 00 00 00 00 00 00 00 00 00 00
       0.0 0.0 0.0 0.0
0001e0 00 00 00 00 00 00 00 00 00 00 00 00 00 00 00 00
       0.0 0.0 0.0 0.0
0001f0 00 00 00 00 00 00 00 00 00 00 00 00 00 00 00 00
       0.0 0.0 0.0 0.0

arith.constant27 f4 [19, 128]
000000 00 00 00 00 00 00 00 00 00 00 00 00 00 00 00 00
       0.0 0.0 0.0 0.0
000010 00 00 00 00 00 00 00 00 00 00 00 00 00 00 00 00
       0.0 0.0 0.0 0.0
000020 00 00 00 00 00 00 00 00 00 00 00 00 00 00 00 00
       0.0 0.0 0.0 0.0
000030 00 00 00 00 00 00 00 00 00 00 00 00 00 00 00 00
       0.0 0.0 0.0 0.0
000040 00 00 00 00 00 00 00 00 00 00 00 00 00 00 00 00
       0.0 0.0 0.0 0.0
000050 00 00 00 00 00 00 00 00 00 00 00 00 00 00 00 00
       0.0 0.0 0.0 0.0
000060 00 00 00 00 00 00 00 00 00 00 00 00 00 00 00 00
       0.0 0.0 0.0 0.0
000070 00 00 00 00 00 00 00 00 00 00 00 00 00 00 00 00
       0.0 0.0 0.0 0.0
000080 00 00 00 00 00 00 00 00 00 00 00 00 00 00 00 00
       0.0 0.0 0.0 0.0
000090 00 00 00 00 00 00 00 00 00 00 00 00 00 00 00 00
       0.0 0.0 0.0 0.0
0000a0 00 00 00 00 00 00 00 00 00 00 00 00 00 00 00 00
       0.0 0.0 0.0 0.0
0000b0 00 00 00 00 00 00 00 00 00 00 00 00 00 00 00 00
       0.0 0.0 0.0 0.0
0000c0 00 00 00 00 00 00 00 00 00 00 00 00 00 00 00 00
       0.0 0.0 0.0 0.0
0000d0 00 00 00 00 00 00 00 00 00 00 00 00 00 00 00 00
       0.0 0.0 0.0 0.0
0000e0 00 00 00 00 00 00 00 00 00 00 00 00 00 00 00 00
       0.0 0.0 0.0 0.0
0000f0 00 00 00 00 00 00 00 00 00 00 00 00 00 00 00 00
       0.0 0.0 0.0 0.0
000100 00 00 00 00 00 00 00 00 00 00 00 00 00 00 00 00
       0.0 0.0 0.0 0.0
000110 00 00 00 00 00 00 00 00 00 00 00 00 00 00 00 00
       0.0 0.0 0.0 0.0
000120 00 00 00 00 00 00 00 00 00 00 00 00 00 00 00 00
       0.0 0.0 0.0 0.0
000130 00 00 00 00 00 00 00 00 00 00 00 00 00 00 00 00
       0.0 0.0 0.0 0.0
000140 00 00 00 00 00 00 00 00 00 00 00 00 00 00 00 00
       0.0 0.0 0.0 0.0
000150 00 00 00 00 00 00 00 00 00 00 00 00 00 00 00 00
       0.0 0.0 0.0 0.0
000160 00 00 00 00 00 00 00 00 00 00 00 00 00 00 00 00
       0.0 0.0 0.0 0.0
000170 00 00 00 00 00 00 00 00 00 00 00 00 00 00 00 00
       0.0 0.0 0.0 0.0
000180 00 00 00 00 00 00 00 00 00 00 00 00 00 00 00 00
       0.0 0.0 0.0 0.0
000190 00 00 00 00 00 00 00 00 00 00 00 00 00 00 00 00
       0.0 0.0 0.0 0.0
0001a0 00 00 00 00 00 00 00 00 00 00 00 00 00 00 00 00
       0.0 0.0 0.0 0.0
0001b0 00 00 00 00 00 00 00 00 00 00 00 00 00 00 00 00
       0.0 0.0 0.0 0.0
0001c0 00 00 00 00 00 00 00 00 00 00 00 00 00 00 00 00
       0.0 0.0 0.0 0.0
0001d0 00 00 00 00 00 00 00 00 00 00 00 00 00 00 00 00
       0.0 0.0 0.0 0.0
0001e0 00 00 00 00 00 00 00 00 00 00 00 00 00 00 00 00
       0.0 0.0 0.0 0.0
0001f0 00 00 00 00 00 00 00 00 00 00 00 00 00 00 00 00
       0.0 0.0 0.0 0.0
000200 00 00 00 00 00 00 00 00 00 00 00 00 00 00 00 00
       0.0 0.0 0.0 0.0
000210 00 00 00 00 00 00 00 00 00 00 00 00 00 00 00 00
       0.0 0.0 0.0 0.0
000220 00 00 00 00 00 00 00 00 00 00 00 00 00 00 00 00
       0.0 0.0 0.0 0.0
000230 00 00 00 00 00 00 00 00 00 00 00 00 00 00 00 00
       0.0 0.0 0.0 0.0
000240 00 00 00 00 00 00 00 00 00 00 00 00 00 00 00 00
       0.0 0.0 0.0 0.0
000250 00 00 00 00 00 00 00 00 00 00 00 00 00 00 00 00
       0.0 0.0 0.0 0.0
000260 00 00 00 00 00 00 00 00 00 00 00 00 00 00 00 00
       0.0 0.0 0.0 0.0
000270 00 00 00 00 00 00 00 00 00 00 00 00 00 00 00 00
       0.0 0.0 0.0 0.0
000280 00 00 00 00 00 00 00 00 00 00 00 00 00 00 00 00
       0.0 0.0 0.0 0.0
000290 00 00 00 00 00 00 00 00 00 00 00 00 00 00 00 00
       0.0 0.0 0.0 0.0
0002a0 00 00 00 00 00 00 00 00 00 00 00 00 00 00 00 00
       0.0 0.0 0.0 0.0
0002b0 00 00 00 00 00 00 00 00 00 00 00 00 00 00 00 00
       0.0 0.0 0.0 0.0
0002c0 00 00 00 00 00 00 00 00 00 00 00 00 00 00 00 00
       0.0 0.0 0.0 0.0
0002d0 00 00 00 00 00 00 00 00 00 00 00 00 00 00 00 00
       0.0 0.0 0.0 0.0
0002e0 00 00 00 00 00 00 00 00 00 00 00 00 00 00 00 00
       0.0 0.0 0.0 0.0
0002f0 00 00 00 00 00 00 00 00 00 00 00 00 00 00 00 00
       0.0 0.0 0.0 0.0
000300 00 00 00 00 00 00 00 00 00 00 00 00 00 00 00 00
       0.0 0.0 0.0 0.0
000310 00 00 00 00 00 00 00 00 00 00 00 00 00 00 00 00
       0.0 0.0 0.0 0.0
000320 00 00 00 00 00 00 00 00 00 00 00 00 00 00 00 00
       0.0 0.0 0.0 0.0
000330 00 00 00 00 00 00 00 00 00 00 00 00 00 00 00 00
       0.0 0.0 0.0 0.0
000340 00 00 00 00 00 00 00 00 00 00 00 00 00 00 00 00
       0.0 0.0 0.0 0.0
000350 00 00 00 00 00 00 00 00 00 00 00 00 00 00 00 00
       0.0 0.0 0.0 0.0
000360 00 00 00 00 00 00 00 00 00 00 00 00 00 00 00 00
       0.0 0.0 0.0 0.0
000370 00 00 00 00 00 00 00 00 00 00 00 00 00 00 00 00
       0.0 0.0 0.0 0.0
000380 00 00 00 00 00 00 00 00 00 00 00 00 00 00 00 00
       0.0 0.0 0.0 0.0
000390 00 00 00 00 00 00 00 00 00 00 00 00 00 00 00 00
       0.0 0.0 0.0 0.0
0003a0 00 00 00 00 00 00 00 00 00 00 00 00 00 00 00 00
       0.0 0.0 0.0 0.0
0003b0 00 00 00 00 00 00 00 00 00 00 00 00 00 00 00 00
       0.0 0.0 0.0 0.0
0003c0 00 00 00 00 00 00 00 00 00 00 00 00 00 00 00 00
       0.0 0.0 0.0 0.0
0003d0 00 00 00 00 00 00 00 00 00 00 00 00 00 00 00 00
       0.0 0.0 0.0 0.0
0003e0 00 00 00 00 00 00 00 00 00 00 00 00 00 00 00 00
       0.0 0.0 0.0 0.0
0003f0 00 00 00 00 00 00 00 00 00 00 00 00 00 00 00 00
       0.0 0.0 0.0 0.0

arith.constant28 f4 [256]
000000 00 00 00 00 00 00 00 00 00 00 00 00 00 00 00 00
       0.0 0.0 0.0 0.0
000010 00 00 00 00 00 00 00 00 00 00 00 00 00 00 00 00
       0.0 0.0 0.0 0.0
000020 00 00 00 00 00 00 00 00 00 00 00 00 00 00 00 00
       0.0 0.0 0.0 0.0
000030 00 00 00 00 00 00 00 00 00 00 00 00 00 00 00 00
       0.0 0.0 0.0 0.0
000040 00 00 00 00 00 00 00 00 00 00 00 00 00 00 00 00
       0.0 0.0 0.0 0.0
000050 00 00 00 00 00 00 00 00 00 00 00 00 00 00 00 00
       0.0 0.0 0.0 0.0
000060 00 00 00 00 00 00 00 00 00 00 00 00 00 00 00 00
       0.0 0.0 0.0 0.0
000070 00 00 00 00 00 00 00 00 00 00 00 00 00 00 00 00
       0.0 0.0 0.0 0.0
000080 00 00 00 00 00 00 00 00 00 00 00 00 00 00 00 00
       0.0 0.0 0.0 0.0
000090 00 00 00 00 00 00 00 00 00 00 00 00 00 00 00 00
       0.0 0.0 0.0 0.0
0000a0 00 00 00 00 00 00 00 00 00 00 00 00 00 00 00 00
       0.0 0.0 0.0 0.0
0000b0 00 00 00 00 00 00 00 00 00 00 00 00 00 00 00 00
       0.0 0.0 0.0 0.0
0000c0 00 00 00 00 00 00 00 00 00 00 00 00 00 00 00 00
       0.0 0.0 0.0 0.0
0000d0 00 00 00 00 00 00 00 00 00 00 00 00 00 00 00 00
       0.0 0.0 0.0 0.0
0000e0 00 00 00 00 00 00 00 00 00 00 00 00 00 00 00 00
       0.0 0.0 0.0 0.0
0000f0 00 00 00 00 00 00 00 00 00 00 00 00 00 00 00 00
       0.0 0.0 0.0 0.0
000100 00 00 00 00 00 00 00 00 00 00 00 00 00 00 00 00
       0.0 0.0 0.0 0.0
000110 00 00 00 00 00 00 00 00 00 00 00 00 00 00 00 00
       0.0 0.0 0.0 0.0
000120 00 00 00 00 00 00 00 00 00 00 00 00 00 00 00 00
       0.0 0.0 0.0 0.0
000130 00 00 00 00 00 00 00 00 00 00 00 00 00 00 00 00
       0.0 0.0 0.0 0.0
000140 00 00 00 00 00 00 00 00 00 00 00 00 00 00 00 00
       0.0 0.0 0.0 0.0
000150 00 00 00 00 00 00 00 00 00 00 00 00 00 00 00 00
       0.0 0.0 0.0 0.0
000160 00 00 00 00 00 00 00 00 00 00 00 00 00 00 00 00
       0.0 0.0 0.0 0.0
000170 00 00 00 00 00 00 00 00 00 00 00 00 00 00 00 00
       0.0 0.0 0.0 0.0
000180 00 00 00 00 00 00 00 00 00 00 00 00 00 00 00 00
       0.0 0.0 0.0 0.0
000190 00 00 00 00 00 00 00 00 00 00 00 00 00 00 00 00
       0.0 0.0 0.0 0.0
0001a0 00 00 00 00 00 00 00 00 00 00 00 00 00 00 00 00
       0.0 0.0 0.0 0.0
0001b0 00 00 00 00 00 00 00 00 00 00 00 00 00 00 00 00
       0.0 0.0 0.0 0.0
0001c0 00 00 00 00 00 00 00 00 00 00 00 00 00 00 00 00
       0.0 0.0 0.0 0.0
0001d0 00 00 00 00 00 00 00 00 00 00 00 00 00 00 00 00
       0.0 0.0 0.0 0.0
0001e0 00 00 00 00 00 00 00 00 00 00 00 00 00 00 00 00
       0.0 0.0 0.0 0.0
0001f0 00 00 00 00 00 00 00 00 00 00 00 00 00 00 00 00
       0.0 0.0 0.0 0.0
000200 00 00 00 00 00 00 00 00 00 00 00 00 00 00 00 00
       0.0 0.0 0.0 0.0
000210 00 00 00 00 00 00 00 00 00 00 00 00 00 00 00 00
       0.0 0.0 0.0 0.0
000220 00 00 00 00 00 00 00 00 00 00 00 00 00 00 00 00
       0.0 0.0 0.0 0.0
000230 00 00 00 00 00 00 00 00 00 00 00 00 00 00 00 00
       0.0 0.0 0.0 0.0
000240 00 00 00 00 00 00 00 00 00 00 00 00 00 00 00 00
       0.0 0.0 0.0 0.0
000250 00 00 00 00 00 00 00 00 00 00 00 00 00 00 00 00
       0.0 0.0 0.0 0.0
000260 00 00 00 00 00 00 00 00 00 00 00 00 00 00 00 00
       0.0 0.0 0.0 0.0
000270 00 00 00 00 00 00 00 00 00 00 00 00 00 00 00 00
       0.0 0.0 0.0 0.0
000280 00 00 00 00 00 00 00 00 00 00 00 00 00 00 00 00
       0.0 0.0 0.0 0.0
000290 00 00 00 00 00 00 00 00 00 00 00 00 00 00 00 00
       0.0 0.0 0.0 0.0
0002a0 00 00 00 00 00 00 00 00 00 00 00 00 00 00 00 00
       0.0 0.0 0.0 0.0
0002b0 00 00 00 00 00 00 00 00 00 00 00 00 00 00 00 00
       0.0 0.0 0.0 0.0
0002c0 00 00 00 00 00 00 00 00 00 00 00 00 00 00 00 00
       0.0 0.0 0.0 0.0
0002d0 00 00 00 00 00 00 00 00 00 00 00 00 00 00 00 00
       0.0 0.0 0.0 0.0
0002e0 00 00 00 00 00 00 00 00 00 00 00 00 00 00 00 00
       0.0 0.0 0.0 0.0
0002f0 00 00 00 00 00 00 00 00 00 00 00 00 00 00 00 00
       0.0 0.0 0.0 0.0
000300 00 00 00 00 00 00 00 00 00 00 00 00 00 00 00 00
       0.0 0.0 0.0 0.0
000310 00 00 00 00 00 00 00 00 00 00 00 00 00 00 00 00
       0.0 0.0 0.0 0.0
000320 00 00 00 00 00 00 00 00 00 00 00 00 00 00 00 00
       0.0 0.0 0.0 0.0
000330 00 00 00 00 00 00 00 00 00 00 00 00 00 00 00 00
       0.0 0.0 0.0 0.0
000340 00 00 00 00 00 00 00 00 00 00 00 00 00 00 00 00
       0.0 0.0 0.0 0.0
000350 00 00 00 00 00 00 00 00 00 00 00 00 00 00 00 00
       0.0 0.0 0.0 0.0
000360 00 00 00 00 00 00 00 00 00 00 00 00 00 00 00 00
       0.0 0.0 0.0 0.0
000370 00 00 00 00 00 00 00 00 00 00 00 00 00 00 00 00
       0.0 0.0 0.0 0.0
000380 00 00 00 00 00 00 00 00 00 00 00 00 00 00 00 00
       0.0 0.0 0.0 0.0
000390 00 00 00 00 00 00 00 00 00 00 00 00 00 00 00 00
       0.0 0.0 0.0 0.0
0003a0 00 00 00 00 00 00 00 00 00 00 00 00 00 00 00 00
       0.0 0.0 0.0 0.0
0003b0 00 00 00 00 00 00 00 00 00 00 00 00 00 00 00 00
       0.0 0.0 0.0 0.0
0003c0 00 00 00 00 00 00 00 00 00 00 00 00 00 00 00 00
       0.0 0.0 0.0 0.0
0003d0 00 00 00 00 00 00 00 00 00 00 00 00 00 00 00 00
       0.0 0.0 0.0 0.0
0003e0 00 00 00 00 00 00 00 00 00 00 00 00 00 00 00 00
       0.0 0.0 0.0 0.0
0003f0 00 00 00 00 00 00 00 00 00 00 00 00 00 00 00 00
       0.0 0.0 0.0 0.0
